st/checkpoints/embedding_iter_25000.pth (torch, 396443 bytes, 2 tensors)

proj.weight f4 [512, 3, 8, 8]
-0.07294665 -0.050645456 -0.0010997043 0.03918076 0.07585408 0.05751935 0.039127216 0.06570837
-0.011290833 -0.0061582136 -0.06399007 0.05642818 0.030521037 0.07680684 -0.0030108502 0.0040671066
-0.11491153 -0.036204208 -0.07748959 0.009402619 0.033715494 0.019987041 0.054122828 0.06907779
-0.0848721 -0.012892145 0.008974268 0.07418268 0.07132227 0.02630356 0.0507217 0.109950654
-0.07642947 -0.064064376 0.07434984 0.11295162 0.10316755 0.10876474 0.040371023 0.10624857
-0.00201597 -0.040062897 -0.0327025 0.058630623 0.07480271 -0.031497713 0.06287164 -0.016689554
-0.09945446 -0.0131617915 -0.07275719 -0.007875606 0.0017909124 -0.033524636 0.021893585 0.005294532
-0.1474184 -0.007112252 -0.11549888 -0.053286534 -0.09378259 -0.0035553072 -0.06209652 0.019951867
-0.07523796 0.0029501673 0.018627815 0.01479461 0.061711572 -0.0074644196 0.036577508 -0.06782518
-0.098446876 -0.012818263 -0.07755445 0.030721765 -0.011023811 -0.034517657 -0.097886465 -0.084286064
-0.07129736 -0.09858263 -0.08526403 0.0109410295 0.02427524 -0.08858472 -0.053123932 -0.030360816
-0.050326478 -0.07786045 0.012653984 0.09154433 -0.019158293 -0.015046603 -0.045286506 0.026086537
0.060434256 0.0041512866 0.11049385 0.042859532 0.059217203 -0.0036164606 0.017020032 0.04304541
0.05379197 0.025771841 0.051615216 0.06487174 0.119783945 -0.028983658 0.08589662 -0.009122732
-0.090385154 -0.06396951 -0.072468854 0.0016292767 0.03810097 0.07402753 -0.011292116 0.094697274
-0.03607618 -0.100607574 0.010858563 0.025594119 -0.07346354 -0.042338476 0.01189682 0.07030716
-0.024524786 -0.0341085 -0.039825026 0.0014179578 -0.04410353 0.021508068 -0.057719335 -0.1057206
-0.039903935 -0.0042432975 0.017206874 0.0377082 -0.050253097 0.050411444 -0.045193892 -0.056650806
-0.08282711 -0.03603099 0.051884107 0.068534195 -0.01229941 -0.08372377 -0.009275516 0.032893583
0.0264379 0.039474044 -0.038608395 -0.013183942 -0.06070532 -0.06719515 -0.044119604 0.0278941
0.07461762 0.037167236 0.09201013 0.09441536 0.05519747 -0.012881255 0.04456322 0.061799407
0.045476314 -0.060946777 -0.011162208 0.070531785 0.09640239 0.042474948 -0.056118604 0.028827934
-0.01939788 -0.028762657 -0.010098721 -0.05612906 0.036677986 0.038749073 -0.014996899 0.082356066
-0.051804513 -0.073250316 -0.065254115 -0.015834782 -0.06912238 0.016506355 -0.05811485 0.038140662
0.007642237 -0.09298684 0.048294466 -0.030685358 0.023509808 0.015291388 -0.030575367 0.022871131
-0.058278963 -0.052021563 -0.07427008 -0.043511156 -0.0052565043 0.024260908 -0.036770504 0.073773965
0.037578885 0.03485518 0.0503631 0.049287807 -0.038209993 0.0139161525 0.031447068 0.06285698
0.0025383497 0.010362481 0.025809282 0.020390537 -0.04864547 -0.06420834 -0.0013557867 -0.009252598
0.013351586 0.018306462 0.090338275 0.036906842 0.011430915 -0.04388946 -0.058804136 0.002030246
-0.0018031959 0.050065015 0.05940885 0.015073734 0.023535298 0.02362214 0.02839127 0.0021138631
0.05951047 0.07629489 0.04880108 0.057313636 -0.03907959 -0.04981723 0.05530509 0.039213452
-0.0042383526 -0.0697727 0.02219571 0.0026267078 -0.05535107 -0.04890147 0.051117174 0.028680095
00000000: 0e65 95bd 9c71 4fbd f423 90ba 017c 203d
00000010: 6259 9b3d 6999 6b3d dc43 203d 1c92 863d
00000020: 30fd 38bc d7ca c9bb 3a0d 83bd 3c21 673d
00000030: 4107 fa3c e84c 9d3d af51 45bb 5d45 853b
00000040: bc56 ebbd dd4a 14bd ddb2 9ebd 710d 1a3c
00000050: 4219 0a3d ddbb a33c e6af 5d3d a878 8d3d
00000060: 6cd1 adbd 9339 53bc cf08 133c 17ed 973d
00000070: 6911 923d 907a d73c 8fc1 4f3d cf2d e13d
00000080: 0e87 9cbd 2f34 83bd bb44 983d 2e53 e73d
00000090: 8249 d33d 0cc0 de3d 165c 253d da98 d93d
000000a0: 5d1e 04bb fe18 24bd 0ef3 05bd aa26 703d
000000b0: 2a32 993d bf03 01bd d9c2 803d 88b8 88bc
000000c0: c8ae cbbd 8ea4 57bc b901 95bd b008 01bc
000000d0: 0cbd ea3a 2151 09bd 2d5a b33c c17d ad3b
000000e0: d9f4 16be e50d e9bb ad8a ecbd fb42 5abd
000000f0: 1611 c0bd 2800 69bb ec58 7ebd 1972 a33c
00000100: 5c16 9abd 9857 413b 5c99 983c 1865 723c
00000110: 46c5 7c3d 1798 f4bb 4cd2 153d eee7 8abd
00000120: 849e c9bd b103 52bc ded4 9ebd 36ac fb3c
00000130: 379d 34bc 6362 0dbd b378 c8bd 2c9e acbd
00000140: 5a04 92bd b1e5 c9bd e89e aebd 0142 333c
00000150: dedc c63c e86b b5bd 7b98 59bd 3fb7 f8bc
00000160: 2323 4ebd 4d75 9fbd a852 4f3c 987b bb3d
00000170: daf1 9cbc 0786 76bc 587e 39bd 6fb3 d53c
00000180: e989 773d 8407 883b 9a4a e23d 7a8d 2f3d
00000190: bd8d 723d 2402 6dbb 986d 8b3c 6250 303d
000001a0: f854 5c3d 781f d33c 7a6a 533d 7adb 843d
000001b0: 4951 f53d 236f edbc 91ea af3d 8377 15bc
000001c0: da1b b9bd 7202 83bd 8d6a 94bd 748d d53a
000001d0: c30f 1c3d bf9b 973d 9102 39bc a5f0 c13d
000001e0: 9ec4 13bd 580b cebd 1de8 313c c2aa d13c
000001f0: 0d74 96bd 1c6b 2dbd e1ea 423c 33fd 8f3d
00000200: 34e8 c8bc 5bb5 0bbd 911f 23bd c5da b93a
00000210: e7a5 34bd b031 b03c 1c6b 6cbd 0b84 d8bd
00000220: 4f72 23bd 5c0b 8bbb 6ef5 8c3c ea73 1a3d
00000230: 31d6 4dbd 3b7c 4e3d 3b1d 39bd ad0a 68bd
00000240: 43a1 a9bd 3b95 13bd 6e84 543d a85b 8c3d
00000250: 7783 49bc 5e77 abbd 55f8 17bc 6cbb 063d
00000260: 4b94 d83c 89af 213d d623 1ebd 7601 58bc
00000270: 24a6 78bd 9c9d 89bd c2b6 34bd 2b82 e43c
00000280: 1fd1 983d ac3c 183d cf6f bc3d d75c c13d
00000290: be16 623d e60b 53bc ec87 363d 6021 7d3d
000002a0: 5f45 3a3d 54a3 79bd b2e1 36bc f872 903d
000002b0: 9e6e c53d 36fa 2d3d 9fdc 65bd 8f28 ec3c
000002c0: 4ee8 9ebc aa9f ebbc 1b75 25bc 96e7 65bd
000002d0: a83b 163d 59b7 1e3d 8eb5 75bc 4caa a83d
000002e0: f830 54bd 4304 96bd f3a3 85bd f2b7 81bc
000002f0: 0990 8dbd 5638 873c d609 6ebd 6239 1c3d
00000300: bb6b fa3b e26f bebd 6bd0 453d dc5f fbbc
00000310: a497 c03c bb88 7a3c 3179 fabc 3d5c bb3c
00000320: ecb5 6ebd 9014 55bd e91a 98bd c138 32bd
00000330: c13e acbb d0be c63c ab9c 16bd ce16 973d
00000340: 51ec 193d 4ec4 0e3d 8a49 4e3d 03e2 493d
00000350: 1582 1cbd 9300 643c a4ce 003d 29bb 803d
00000360: 715a 263b 65c7 293c fd6d d33c 0e0a a73c
00000370: 7940 47bd aa7f 83bd a7b4 b1ba 3598 17bc
00000380: 9cc0 5a3c 6ff7 953c 4603 b93d a12b 173d
00000390: bc48 3b3c 6fc5 33bd 9bdc 70bd e00d 053b
000003a0: 3759 ecba f910 4d3d b256 733d d3f7 763c
000003b0: 19cd c03c 3883 c13c cf94 e83c bd88 0a3b
000003c0: 40c1 733d 7f40 9c3d a4e3 473d b4c1 6a3d
000003d0: ec11 20bd 270d 4cbd 9787 623d 499e 203d
000003e0: e1e1 8abb fde4 8ebd c7d3 b53c d824 2c3b
000003f0: ceb7 62bd e84c 48bd 3e60 513d 85f2 ea3c

proj.bias f4 [512]
0.026356434 0.13642241 0.008084023 0.03647594 0.042862996 -0.049984638 -0.108096585 -0.15127617
0.04951115 0.19807822 0.13915256 -0.11980516 -0.0555436 -0.011311356 -0.09316493 0.18213333
0.16283783 0.07904408 0.057009693 -0.10730776 -0.12408621 0.17835854 0.091961645 0.083855756
-0.09978962 -0.01391062 0.03707039 -0.12751736 -0.04502454 0.07438345 0.067524634 -0.077035174
0.12394722 0.011747713 -0.10027734 -0.044110652 -0.054588176 0.07928094 -0.13746117 0.023255855
0.14449596 -0.13501638 -0.015203582 0.08775305 0.026839592 0.10170216 0.035348702 -0.059223823
0.08389315 -0.12979408 -0.13122715 0.15954937 -0.1416694 0.05917535 -0.14110948 -0.09575623
0.1386668 -0.021856392 0.16408281 -0.12356323 -0.028890362 -0.04148406 -0.073888406 -0.109041005
-0.014775744 0.023479925 -0.051303044 0.082902454 -0.09717587 -0.078712836 0.15811843 0.036660988
0.1377671 0.11682536 0.10190262 -0.07835337 -0.028890364 0.09251294 0.08089379 0.06509215
0.14736411 -0.049857985 -0.05077433 0.02978467 0.03633805 0.04624868 -0.088753626 0.1547676
0.0656867 0.03693707 0.108568765 0.042176988 0.18266836 0.09583449 -0.11786095 0.07924821
0.15446074 0.08130553 -0.15976623 -0.043232497 0.20149927 -0.033096757 0.14037302 0.11535498
0.10666147 0.069555 0.10223382 0.012697926 -0.1262754 -0.07996813 -0.19754511 0.05119856
-0.16689679 -0.07097141 0.12814453 0.09062173 -0.08997584 -0.092773534 -0.15052456 0.23930953
0.036879066 -0.065372884 0.15896453 -0.14702122 0.09403825 -0.025111452 0.024198733 -0.12453514
-0.12504856 0.18009509 -0.0057388935 -0.077213876 -0.043430302 0.066755965 -0.06393272 -0.07684206
-0.14321366 0.123444624 0.13324377 -0.0861647 -0.007117472 0.029223472 -0.0060032005 0.08355151
0.122755975 0.15446278 -0.10883449 0.15119539 -0.002269645 -0.1407373 0.11661499 0.07703957
-0.049275428 0.09467022 -0.023287494 0.12653239 -0.14319776 -0.030863546 0.08571293 0.1727096
-0.106046095 0.04405756 -0.12633413 -0.1272977 -0.11512048 0.16021109 0.15327516 0.10406997
0.09434271 -0.061798893 0.07752532 0.16909592 0.07920531 0.013610955 -0.079869114 0.09068568
-0.008607996 0.12291832 -0.10544324 0.008715889 -0.062287893 -0.023735562 0.107134536 -0.07832469
0.11130475 0.121048816 0.09276756 -0.005111548 0.11230147 0.13673489 0.08225184 -0.06024983
0.1194374 0.052861605 0.16621272 0.12019677 -0.062786065 0.037284233 -0.028345544 0.072796986
0.060606528 -0.20694956 0.03629048 0.037087813 0.04237326 -0.06870056 -0.13411562 -0.07527798
0.073469184 0.033753864 0.041774053 -0.050276022 0.06320844 0.11988651 -0.12752461 -0.101331435
0.06319383 -0.036828063 -0.13861378 -0.012700095 -0.09356686 -0.09544031 -0.08975497 -0.039337814
-0.100599006 0.045019545 0.027060475 -0.14037907 0.1411943 -0.12465364 0.076253645 -0.11216726
0.11835548 -0.048455667 0.058580793 0.0827879 -0.10384976 -0.04966636 0.0133104725 0.045677736
-0.002711234 -0.12681699 0.04735521 -0.09654987 0.017923923 0.11799132 -0.14298682 -0.07815185
0.08794961 0.11319063 0.04138367 -0.072691515 -0.09743142 0.13261499 0.14772592 0.22568734
00000000: 73e9 d73c 51b2 0b3e da72 043c cc67 153d
00000010: 1c91 2f3d b1bc 4cbd be61 ddbd 24e8 1abe
00000020: 34cc 4a3d 04d5 4a3e 027e 0e3e 685c f5bd
00000030: b081 63bd 4453 39bc 41cd bebd 2981 3a3e
00000040: f6be 263e dde1 a13d ff82 693d 2cc4 dbbd
00000050: e920 febd 9fa3 363e 6356 bc3d 91bc ab3d
00000060: 805e ccbd 5ee9 63bc 1fd7 173d e993 02be
00000070: a76b 38bd 5a56 983d 5b4a 8a3d 9ec4 9dbd
00000080: 0ad8 fd3d 7b79 403c 355e cdbd 5fad 34bd
00000090: da97 5fbd 0c5e a23d 9fc2 0cbe 1083 be3c
000000a0: c0f6 133e bc41 0abe 7218 79bc dfb7 b33d
000000b0: b4de db3c 3949 d03d cdc9 103d ae94 72bd
000000c0: 2cd0 ab3d bde8 04be 6960 06be e960 233e
000000d0: c811 11be da61 723d 017f 10be d81b c4bd
000000e0: abfe 0d3e 2d0c b3bc 5305 283e b80e fdbd
000000f0: 7bab ecbc 31eb 29bd ce52 97bd e450 dfbd
00000100: f615 72bc f958 c03c 2423 52bd c3c8 a93d
00000110: 2404 c7bd 3234 a1bd cce9 213e d529 163d
00000120: d212 0d3e 2242 ef3d 52b2 d03d bb77 a0bd
00000130: 7cab ecbc 6d77 bd3d a5ab a53d 084f 853d
00000140: 9ee6 163e e337 4cbd bef8 4fbd fbfe f33c
00000150: 35d7 143d 426f 3d3d 76c4 b5bd 667b 1e3e
00000160: c086 863d 534b 173d 4d59 de3d c7c1 2c3d
00000170: 6a0d 3b3e e044 c43d 1561 f1bd e34c a23d
00000180: f52a 1e3e 8483 a63d c299 23be 8f14 31bd
00000190: d355 4e3e 7790 07bd f2bd 0f3e 3b3f ec3d
000001a0: 5471 da3d da72 8e3d f75f d13d f60a 503c
000001b0: 574e 01be 55c6 a3bd 4449 4abe 95b5 513d
000001c0: fee6 2abe 7559 91bd 5238 033e e397 b93d
000001d0: 4145 b8bd 0d00 bebd 1c23 1abe 8f0d 753e
000001e0: 810e 173d 38e2 85bd 99c7 223e bb8c 16be
000001f0: 2097 c03d 88b6 cdbc 6c3c c63c 480c ffbd
00000200: bb0c 00be d96a 383e 540d bcbb 4f22 9ebd
00000210: f9e3 31bd 5ab7 883d 28ef 82bd 5f5f 9dbd
00000220: 9aa6 12be 89d0 fc3d 0e71 083e 1e77 b0bd
00000230: af39 e9bb 1066 ef3c 7fb6 c4bb 0e1d ab3d
00000240: 7c67 fb3d 7e2b 1e3e 9ee4 debd f7d2 1a3e
00000250: 53be 14bb 701d 10be d7d3 ee3d ecc6 9d3d
00000260: 08d5 49bd 76e2 c13d 6ac5 bebc b591 013e
00000270: 6fa2 12be 8cd5 fcbc 438a af3d c9da 303e
00000280: b22e d9bd b375 343d bc5d 01be 545a 02be
00000290: 49c4 ebbd 600e 243e 2af4 1c3e a322 d53d
000002a0: c036 c13d d620 7dbd 98c5 9e3d 7b27 2d3e
000002b0: 6536 a23d 7c00 5f3c 6b92 a3bd 6ab9 b93d
000002c0: 8d08 0dbc 9abc fb3d a0f2 d7bd 17cd 0e3c
000002d0: 9721 7fbd 1571 c2bc 5a69 db3d b268 a0bd
000002e0: bff3 e33d 71e8 f73d ebfc bd3d c67e a7bb
000002f0: 50fe e53d 3b04 0c3e a773 a83d 87c8 76bd
00000300: 989b f43d 6985 583d ab33 2a3e b929 f63d
00000310: fb95 80bd 5ab7 183d ea34 e8bc 9616 953d
00000320: 8d3e 783d 96ea 53be 54a5 143d 64e9 173d
00000330: 958f 2d3d e1b2 8cbd 9b55 09be 572b 9abd
00000340: 0377 963d 7e41 0a3d 451b 2b3d 3bee 4dbd
00000350: 6d73 813d 0f87 f53d d095 02be db86 cfbd
00000360: c46b 813d 06d9 16bd c5f0 0dbe 0f14 50bc
00000370: fb9f bfbd 3676 c3bd 74d1 b7bd b020 21bd
00000380: da06 cebd 6a66 383d eead dd3c 88bf 0fbe
00000390: 3d95 103e 684a ffbd df2a 9c3d f3b7 e5bd
000003a0: 5c64 f23d 7379 46bd 6af2 6f3d b48c a93d
000003b0: 2faf d4bd f46e 4bbd 2b14 5a3c 9418 3b3d
000003c0: f5ae 31bb 50dc 01be 89f7 413d f0bb c5bd
000003d0: 31d5 923c 6fa5 f13d 236b 12be 140e a0bd
000003e0: ed1e b43d 7dd0 e73d ec81 293d 4adf 94bd
000003f0: 208a c7bd 39cc 073e 7745 173e 951a 673e
